results/gcn_lstm_model.pth (torch, 573039 bytes, 8 tensors)

gcn1.linear.weight f4 [128, 76]
00000000: 968e b4bd 20dd 383d 16ec 28bc fb7d e0bc
00000010: 142e 86bd 252f 11bd 95bb bebc cf22 673d
00000020: 4703 c63d 4e39 a4bd 1be2 0bbd 5f87 8b3c
00000030: f23c afbb 04dd bebd eceb fe3d 6235 83bd
00000040: 556d a3bd d330 c53d 5684 32bd 1520 b1bc
00000050: 8e1f 6cbc e535 cd3d e433 ae3c 2465 e53d
00000060: fce4 0abd 37c3 143d 4759 633d 4d7e 413c
00000070: 5393 d8bd 4c1a 49bd 1da3 f0bd bc8a 893d
00000080: c3af 733d 8a00 993d 02dc 41bd 4f74 c5bc
00000090: 1bdf bb3c 2451 1c3d b339 923d 3b59 c5bc
000000a0: 331e adbc 7d35 0f3d cd48 caba 0975 d83d
000000b0: e75a 003e 9909 5fbd e2cb c13c 4f98 df3d
000000c0: 4d41 c13d ee0c 84bd bea0 303d 11e6 573d
000000d0: 8010 71bd 5b8c 343c af1f 9ebd 7543 a23d
000000e0: 6c9c a83d f138 33bd 9985 c03c f979 b2bd
000000f0: 2a92 babd 7a7a a93d d5f6 d9bc 4fc0 313d
00000100: 30ca af3c e7df 95bd 0032 16bd abc2 4cbd
00000110: dc22 d2bd f084 b03c aa75 6abd ca5f 083d
00000120: f042 e23c 7fb1 fabd 7403 60bd 0f91 9cbd
00000130: 2bd0 c83c ea78 283d e78a fa3d 1ab2 853d
00000140: d953 74bd 0d2e 0cbd c034 7ebd 1104 5a3d
00000150: 8490 7bbd 2327 14bd 6f71 af3c 87bb d43c
00000160: bc73 1dbd f5e3 cabd dbfa 81bd de15 05be
00000170: bde5 963d 13f7 bd3d da0c 8d3d f2e3 95bd
00000180: dde0 103e 0d32 a4bd b198 dabd 5315 ecbd
00000190: ffdc ba3c d530 4cbc 2c56 853d a1d8 d93c
000001a0: ea67 023d fe37 4bbd 52dd 1bbd fea5 623d
000001b0: 2b46 c7bd de78 12bd 95ac 843d 0754 0f3d
000001c0: 3c44 4f3d 3c97 7a3d 5cd3 eb3d 7507 ab3d
000001d0: 8fb9 5b3c a8b6 11bc 2ae5 2abd 56cb 033e
000001e0: 647f 05be 5024 95bd 6439 06be 2423 bd3c
000001f0: 7875 f2bd a60d b93d ed87 babd 8c9d 203d
00000200: 5911 2d3d 864d 8f3b efc0 9d3d 3294 bfbd
00000210: 825c a23d ed11 bcbd 26b2 003e f2b9 06bd
00000220: 6e12 d03d 9906 73bd 7f09 a03b 7fbd d53d
00000230: 7239 c93d 0696 103d 6831 c93c 604d e83c
00000240: 9a4a 893b b702 9dbc 898c c23d f9cd 94bd
00000250: d597 98bd adf0 ef3d ead4 5d3d ef9a a1bd
00000260: c167 053d 502f 8ebd ea42 d53a 6c43 713c
00000270: 4b8a 9e3d fbc6 9abd 660f 7fbd c80a 5c3c
00000280: b941 203d 6f42 003d db07 76bd 6a07 a4bc
00000290: 13a7 c33d 8164 15bd 31db 703d 1dfe 73bd
000002a0: 7155 543d 24a4 823d 05d6 04bc ed56 56bd
000002b0: 6cf6 0abd 1d70 0cbd f495 8e3d b602 e63d
000002c0: 0ef3 07bc 24f7 fdbc 4abe dd3d 1cf3 05bd
000002d0: 778c a13c 1e51 92bd b1ba 78bd df98 11bd
000002e0: 1e6c 8fbc 8306 8bbd bad7 243d 3098 82bd
000002f0: 2e6e adbd e80b c3bd 15e7 d7bd 1618 853d
00000300: aac5 103d 8d54 b03d cacf fcbd 55ed 09bd
00000310: 9c29 043d f72a 903d bba0 9a3d a6be 453d
00000320: 0fc0 d13c c7f1 d7bd 0d25 c23d 0d7d a2bd
00000330: aacb b7bd ffe9 cf3c 8d71 a23d bea8 2c3d
00000340: 23bd 733d 41ad af3d 0d31 efb9 36bf ad3d
00000350: 45e3 82bd aaa6 b83c cfa2 dd3d 7d85 b53d
00000360: e9a6 91bd 0980 213d 572c ce3d f576 ad3b
00000370: 7b68 223b 2147 d4bd 73a1 d2bd 895b 8e3d
00000380: 473f e4bd 812e 203c 4d5c 8b3d aace dc3d
00000390: 301c b4bd 6e20 b53d 3b6f ce3d ea33 1c3c
000003a0: a13d ddbd 31e9 c03d 1c86 b9bd 1664 73bd
000003b0: ce39 60bd c53e 773d 875f 56bc 2c81 0b3d
000003c0: 0edb 653d 2f45 7a3d 1903 f53c a85b 513c
000003d0: e508 a0bd e5b9 bdbd d582 a2bd 3db8 263b
000003e0: 6ec1 8c3c 55d4 13bc 4ada 8ebd c271 973d
000003f0: 729b dbbd b0ef bebd 6ba9 d23d 2bb8 b7bc
-0.088162586 0.045132756 -0.0103101935 -0.027403822 -0.065517575 -0.03544535 -0.023282805 0.05642968
0.09668594 -0.080187425 -0.034151178 0.017032323 -0.0053478414 -0.09319499 0.12447342 -0.06406666
-0.07979838 0.09628453 -0.043583237 -0.021621743 -0.01441182 0.10020045 0.021264978 0.11200932
-0.033909783 0.036318984 0.055505063 0.011809898 -0.10574975 -0.049097344 -0.117498614 0.067159146
0.05949379 0.07470806 -0.047328956 -0.024103312 0.022933533 0.03816332 0.071399115 -0.0240904
-0.021132564 0.03496312 -0.0015433073 0.10569198 0.12534676 -0.054452512 0.02365679 0.109177224
0.09436283 -0.06447779 0.043122046 0.052709643 -0.058853626 0.0110197915 -0.07720887 0.07923023
0.0823296 -0.043755475 0.023501204 -0.08714671 -0.0910991 0.08275314 -0.026606956 0.04339629
0.021458715 -0.073180966 -0.036668777 -0.049990337 -0.10260555 0.021547765 -0.05724112 0.033294477
0.027619809 -0.12240886 -0.054690793 -0.07644855 0.024513325 0.041130938 0.12233525 0.06528111
-0.059650276 -0.034223605 -0.062062025 0.053226534 -0.061417118 -0.036170136 0.021416394 0.025968326
-0.03844045 -0.099067606 -0.06346675 -0.12996623 0.07368038 0.09275641 0.06887217 -0.07318868
0.14148279 -0.08017359 -0.10673655 -0.11527505 0.022810457 -0.012462814 0.065105766 0.026592555
0.03183738 -0.049613945 -0.038052864 0.055334084 -0.0973018 -0.0357598 0.0647823 0.034992244
0.050602183 0.061179385 0.11514923 0.08351032 0.01341094 -0.008893646 -0.041722454 0.12870535
-0.13036877 -0.07282317 -0.1310783 0.023088045 -0.11838812 0.09035806 -0.09107957 0.03921275
0.042252872 0.004373255 0.07702815 -0.09354438 0.07927801 -0.091831066 0.12567958 -0.032892175
0.10159765 -0.059332464 0.0048839445 0.10436534 0.0982541 0.035299323 0.024559692 0.028357208
0.0041898014 -0.019166334 0.09499461 -0.07265849 -0.07450835 0.11715827 0.05415813 -0.07890879
0.03256965 -0.06942618 0.0016270552 0.014725547 0.07741221 -0.07557484 -0.062270544 0.013430305
0.039125178 0.031313356 -0.060066085 -0.020023067 0.09553351 -0.0364728 0.058802787 -0.059568513
0.051839296 0.063789636 -0.008107667 -0.052328993 -0.033926412 -0.034286607 0.06962195 0.11230986
-0.008297695 -0.031001635 0.108273104 -0.03270255 0.0197203 -0.07144378 -0.060724918 -0.03554618
-0.017507609 -0.067883514 0.040244795 -0.06376684 -0.08468281 -0.09523755 -0.10542122 0.06498735
0.035344757 0.08609877 -0.1234432 -0.033673603 0.032266244 0.07039445 0.07550188 0.04827752
0.025604276 -0.10544162 0.09479723 -0.07934008 -0.08974393 0.025380133 0.07931814 0.042153113
0.059506547 0.085779674 -0.00045622178 0.08483736 -0.063910045 0.02254041 0.10822069 0.088633515
-0.07111914 0.039428744 0.10067051 0.005293722 0.0024781513 -0.10365129 -0.102847 0.06951053
-0.11144882 0.009776712 0.06804714 0.107816055 -0.08794439 0.08844076 0.10079809 0.009533862
-0.108027704 0.09419478 -0.090587825 -0.05942162 -0.054742627 0.060362596 -0.013084299 0.034058735
0.05611711 0.061101135 0.029908704 0.0127782 -0.078141965 -0.09263972 -0.079351105 0.0025439404
0.017182078 -0.009022792 -0.06975229 0.073947445 -0.10723008 -0.093230605 0.1028622 -0.022426685

gcn1.linear.bias f4 [128]
00000000: b6e4 88bc e516 aabd 0b32 603d 0a36 443d
00000010: e4ed 06bb c098 c6bd 3b80 f0bc 4b41 dd3d
00000020: 27a2 ec3d d7f3 f43d c168 1b3d afcf 1fbd
00000030: f57e 84bd 11de 3cbc 18bb 6cbd c387 cdbd
00000040: dd81 4a3d c5f7 c8bd 5a19 de3d f8b4 1abd
00000050: 3945 2cbd e547 623d 4b6a 003d 4ee6 f6bd
00000060: 3239 17bd 8015 fbbb 1483 58bd f9f4 a33c
00000070: 36d9 2f3d 4f20 c03d f990 fe3c 8f2c fabc
00000080: d0ed f0bb 063c aa3d 6bf2 a339 d022 683d
00000090: bd6f 433d 7180 30bd c561 883c fca6 993d
000000a0: d61e dd3d f943 bcbd 3e5b 92bd 0b98 78bd
000000b0: acc1 8d3d c1e7 8c3d d75c bbbd f466 66bd
000000c0: 6241 363d 56c0 37bd 6511 39bc 027e d1bd
000000d0: 57b5 1ebc 8647 55bb 2d0e babd 1ab4 05bd
000000e0: 0cbf a93d 521f 903d 7530 033e ae8f 9dbd
000000f0: baa5 263d d41f acbd 0288 d93c 844d e23c
00000100: 3e06 a2bd 020a c83d 4318 bdbd 8bd5 e9bd
00000110: 6bfc dabd e3c5 dd3c 526d 233c ec81 bc3d
00000120: 5ed3 d53d 2dc1 113d a9e7 8fbd 76b1 fa3c
00000130: 699d b4bd 91e8 46bd b1d6 c63d 70ae a8bd
00000140: f948 9abd c448 a8bd 7b86 82bd f1bd 963d
00000150: 9476 32bc 2714 35bd 7a09 02bd 8bed 6b3d
00000160: f0a9 75bd 29eb 01be 471e b7bd ce96 2fbd
00000170: af2d 983d 7263 073d 52fd 753b e88e 69bd
00000180: b6cf 203d f9e1 adbd 0dcc e7bd 9095 4d3d
00000190: 5c7a e43d 6515 ff3d d353 503d 1b52 2d3d
000001a0: 3a01 d83d 7556 ecbd ba5a 373c 54fb 9abd
000001b0: 53b2 c03d d5d9 143c 4d4e ce3c 7c47 3d3b
000001c0: d42e 4f3d 7103 d03d 0369 e9bd b6bf e5bc
000001d0: f061 08bd 2eaa 5abd de1e 73bd 6975 adbd
000001e0: 4b3d dbbd b550 77bd 4c11 b7bc bbb0 053e
000001f0: fe7e 38bd 43a0 e83d 8ed7 bb3d b1e6 80bc
-0.01671062 -0.08305148 0.054735225 0.0479031 -0.0020588571 -0.096971035 -0.02935802 0.10803469
0.115543656 0.11960571 0.037941698 -0.039016422 -0.06469528 -0.011527554 -0.057795614 -0.1003566
0.049440254 -0.09812883 0.10844679 -0.03777024 -0.042058203 0.055244345 0.03135137 -0.12055646
-0.03691978 -0.007662475 -0.05285938 0.020014273 0.042931758 0.093811624 0.031074988 -0.030538825
-0.007352568 0.0831223 0.00031270398 0.056673825 0.047713984 -0.04309124 0.016648183 0.07502553
0.10796897 -0.09192652 -0.07146309 -0.060691874 0.069217056 0.06880141 -0.09148567 -0.056250528
0.044495948 -0.04486116 -0.011295651 -0.10229112 -0.0096867895 -0.0032543852 -0.09084735 -0.03264246
0.082883924 0.07037224 0.12811454 -0.0769342 0.040685393 -0.08404508 0.026554111 0.027624853
-0.07911347 0.09767534 -0.09233143 -0.11417683 -0.10692676 0.027071899 0.009974794 0.09204468
0.10440706 0.035584617 -0.070266075 0.030602198 -0.08819086 -0.048561636 0.09708918 -0.08236396
-0.0753345 -0.08217004 -0.06373306 0.07360447 -0.010892529 -0.044208672 -0.03174732 0.057599586
-0.05997652 -0.12687363 -0.08941322 -0.042868428 0.074305885 0.033053823 0.0037535024 -0.05702105
0.03926059 -0.084903665 -0.113182165 0.050191462 0.11156151 0.124552526 0.05086119 0.04231463
0.10547109 -0.11539928 0.0111910645 -0.07567468 0.09409013 0.009085138 0.025183821 0.002888172
0.05058177 0.101569064 -0.113969825 -0.028045516 -0.033296525 -0.053384952 -0.05935561 -0.0846966
-0.1070505 -0.060379703 -0.022347115 0.13055699 -0.045042984 0.113586925 0.09171973 -0.015735002

lstm.weight_ih_l0 f4 [512, 128]
00000000: 696e 32bd 177e d3bd 0453 aabb 1166 303d
00000010: 7e6a 323d 2724 34bd 5008 473d e71e 91bd
00000020: c28f 29bd 3ff6 6f3d 306c 253d 0f6b 573d
00000030: 271b e3bc 7a14 abbd 0f08 a83b d5a1 0abd
00000040: 1d39 0ebd 4312 023d 9a58 6e3c ae40 1f3d
00000050: 8daa 353d 10f3 aabd 02bc fdbc 0020 6f3d
00000060: fbc1 4abc 12a1 80bd 6398 73bb 2172 ca3c
00000070: 01dd bbbd cc71 03bd 29b4 8c3d f88e 913c
00000080: 51de 643d f4e3 2e3d 0744 1abd 5ebc 02bd
00000090: e596 41bd 2a64 9b3d f72e ab3d 4d4a 003d
000000a0: 0732 a53b ba50 86bd 2213 7a3d e937 78bd
000000b0: f35a 91bd f400 13bd d18a 673c deec c23c
000000c0: 8efd ae3d 6bf5 cc3c 9db0 5abd 5ef1 253d
000000d0: 2aac f43d a91f a3bd 7898 813d 58a9 783c
000000e0: 7f03 8ebd 2322 783c 0efe b33d f2bf 9fbd
000000f0: 9c08 82bd 0374 62bd 8453 45bd 6d8c 88bd
00000100: 1611 9dbc b93e 213d 0789 80bc d860 bdbd
00000110: bb01 26bd 155a 0d3d d875 63ba ed13 853d
00000120: 5ccc ce3d 5163 873d 4d2f dfbb 9124 9cbd
00000130: 5f3f bb3d 3198 093d 92c8 78bd 2d12 7b3d
00000140: 41cf 683d ac88 df3c fbc4 703d 98b2 6a3d
00000150: 2cab 743d 0e74 8dbc 9db0 f4bc e834 e53b
00000160: ab74 253d 3716 a43c 354c 853d 655b b5bc
00000170: aff5 90bd 6be4 573c 5bfb 19bd f31e c13c
00000180: 09b4 ab3d 773a 623d ca78 303c 1446 a33b
00000190: e6cf 0fbd 19eb 8c3c fb67 7cbd f77a b03d
000001a0: af8c 643d 230b c93d b81f 333d 4289 173d
000001b0: 4013 28bd 09a0 47bd 649e 393d cd2e 093c
000001c0: 871e b4bc 904a 2dbc 5d0d 4f3d bbce bbbd
000001d0: c21c 52ba 4e3d 9dbc 002c 5abd e8b6 a1bd
000001e0: 2a87 83bd fd71 6e3d 5ef2 933c 0f3e 5e3b
000001f0: 17b9 b23d 5622 853c c327 6cbc d25e c4bd
00000200: 1bc0 95bd ae18 45bd 2a8c 6dbc b58e 8cbd
00000210: 813a 833d e87e e73b 0fdf 853d dfb8 423c
00000220: cd7c 093e b652 3dbd a324 893d 040b 2a3b
00000230: 57ac 48bd 720b ef3b 988e 20bd f95d 63bd
00000240: 4896 8abd ffe6 c63b 35f7 a0bd 52ab 83bd
00000250: 5fc1 06bc d502 9bbd 4547 913b e015 a1bd
00000260: 63f9 b73b 396d 4ebc 09de fe3c bc2a 04bd
00000270: b6a5 813d 51e6 71bd 9591 903c bfa4 aabc
00000280: 3634 dcba cb45 bd3d d247 9ebd 1aef b8bd
00000290: 6c47 6bbd e409 5c3d eb4f 8fbb 1ad1 fc3d
000002a0: d6df 66bd 5deb 25bd 9beb 35bd df10 a5bc
000002b0: 13e0 863d bfde bcbd b2b4 343d 75ae a0bc
000002c0: 1985 8abb e140 5bbd e46b 5d3d 091a 673d
000002d0: 03a8 37bd d685 3bbd 9ca1 343c cdc5 733c
000002e0: e861 d03c 04c8 babd 7004 8dbd 54fe 91bc
000002f0: 0c67 b53c 7a09 c0bd f852 22ba 6a74 e8bc
00000300: a3c7 443c 5b40 d4bb e1c0 54bd 7225 6e3d
00000310: 2320 6abd 055e ba3c 79d4 503c 14bf 803d
00000320: 9d4d 533d cfdf b5bd 24b1 f2bc 9d2a 383d
00000330: 8b8e 33bc 861b 8f3d 3bf7 8ebd 3ba2 b1bc
00000340: 7742 6a3d 9082 133d d2f9 d2bd def4 883d
00000350: 20fb 5dbd 8eee e73c 50de f73a d4b4 64bc
00000360: 0dcb 20ba 21d2 04be e083 cf3b f1d4 49bd
00000370: 421a ccbc 642c 16bd 6315 27bd 0ac8 463d
00000380: 370d 973d 432a 0dbd bd97 173d 4e2f 5a3d
00000390: 0444 b83b d375 38bc c659 db3d bf12 d33d
000003a0: e4d3 973d f6be 0abd 7e6f 91bd caf2 d8bc
000003b0: 9abe 9cbc db36 9a3c bc5c 893c 0125 0ebc
000003c0: 3309 33bd 57a0 c3bc 4b4c 283d 0b32 803c
000003d0: 06f6 bb3b 856e 87bd febc 203d c9bc 0ebd
000003e0: 51b4 1dbd 9583 d4bc 17fa 74bc 820f 1f3d
000003f0: 24ba ff3c 4b20 b4bd 559f 6b3d eca4 31bd
-0.043562327 -0.10326784 -0.0051978845 0.043066088 0.04355859 -0.04397979 0.04859191 -0.07085972
-0.041396864 0.058584448 0.04038638 0.052592333 -0.027722908 -0.08353515 0.005127914 -0.03384574
-0.034722436 0.031755697 0.014547491 0.038880043 0.044352103 -0.08347142 -0.030973438 0.058380127
-0.01237535 -0.06280722 -0.0037169687 0.024712624 -0.091730125 -0.032090947 0.068703 0.017768368
0.05587608 0.04269786 -0.037662532 -0.031917922 -0.047263045 0.07587464 0.08358567 0.03132086
0.005041364 -0.06558366 0.061053403 -0.060600195 -0.07097425 -0.03588958 0.0141322175 0.023794588
0.085444555 0.025019368 -0.053391088 0.04051339 0.119469 -0.07965023 0.06327909 0.015177093
-0.069342606 0.015144858 0.087886915 -0.078002825 -0.06349298 -0.05528642 -0.04817535 -0.06667409
-0.019173186 0.039366458 -0.01569034 -0.09246987 -0.040528994 0.034509737 -0.0008676923 0.06497941
0.10097572 0.0661074 -0.0068110586 -0.07624162 0.091429465 0.033592407 -0.060738154 0.06129663
0.056838278 0.02728685 0.058781605 0.057299227 0.059733555 -0.017267253 -0.029869372 0.0069948323
0.040394466 0.020030124 0.06508676 -0.022138307 -0.070781104 0.013177018 -0.037593227 0.023574328
0.08383948 0.055231538 0.010770986 0.004982719 -0.035110377 0.017201947 -0.0616226 0.08617204
0.05579823 0.09816577 0.04373142 0.036996134 -0.041033983 -0.048736606 0.04531707 0.008372975
-0.021987213 -0.010576859 0.050549854 -0.0917029 -0.00080151495 -0.019194271 -0.053264618 -0.07896215
-0.06422265 0.058214176 0.018059906 0.0033911502 0.08726709 0.016251724 -0.014413777 -0.09588398
-0.07312032 -0.04811924 -0.01449875 -0.06863157 0.06407643 0.007064689 0.06536686 0.011884897
0.13426514 -0.046221457 0.06696441 0.0025946507 -0.04899248 0.0072950656 -0.039198488 -0.05550954
-0.06766945 0.0060700173 -0.07859651 -0.06429161 -0.008224814 -0.075688995 0.004433545 -0.078655005
0.005614446 -0.012599283 0.031111734 -0.032267317 0.06330435 -0.059057537 0.017647544 -0.02083051
-0.0016800228 0.092418276 -0.077285424 -0.0902998 -0.05744116 0.05372037 -0.0043735406 0.123445705
-0.05636581 -0.040507663 -0.044414144 -0.020149646 0.065857075 -0.09222173 0.044117637 -0.019614438
-0.0042272923 -0.05352867 0.05405797 0.056421313 -0.044837963 -0.045781933 0.011024859 0.014878702
0.02543731 -0.09120181 -0.06885612 -0.017821468 0.022143863 -0.093768075 -0.0006192173 -0.028375823
0.012010488 -0.0064773983 -0.051941756 0.05814118 -0.057159554 0.02274991 0.01274597 0.06286445
0.05158769 -0.08880579 -0.029625483 0.044962514 -0.010959278 0.069876716 -0.06980749 -0.021683803
0.057192292 0.036013186 -0.10301556 0.0668733 -0.05419457 0.028311994 0.0018910859 -0.013959128
-0.00061337725 -0.12970783 0.0063328594 -0.049275342 -0.024914864 -0.036663428 -0.04079188 0.048530616
0.073755674 -0.034464132 0.037009943 0.05326777 0.0056233425 -0.01125856 0.10710482 0.1030631
0.07413462 -0.03387352 -0.071013436 -0.026482958 -0.019133855 0.018824985 0.016767852 -0.008675815
-0.043709945 -0.023880167 0.041088384 0.015648862 0.0057361154 -0.06612877 0.039242737 -0.03484801
-0.03850204 -0.02594165 -0.014952204 0.03883315 0.031216688 -0.08795222 0.057524998 -0.043370172

lstm.weight_hh_l0 f4 [512, 128]
00000000: 06d8 6abd 590e b73d 7a37 4f3d 5ad1 03bc
00000010: 5e2f 75bc b082 a2bd c518 30bd 8927 953d
00000020: ca61 bf3c 8e0c 7fbd c945 933c c699 1a3c
00000030: 5fa8 d93c 2dba 66bd 446b 533d 57ae c6bc
00000040: ab55 263b d125 f9bc 9a27 973d 4d39 93bc
00000050: eaf9 8a3d cc6e 59bc 9d16 9bbd 1a87 49bd
00000060: a7e9 a1bd 24d1 053c 1358 8a3d a613 543d
00000070: 4599 84bc 8cc4 d63c 4b23 943d 7719 69bd
00000080: a5cc 9ebd 9740 1d3d 051e 093d 204a 9c3d
00000090: 89ff 9cbd 016d 13bd 521e 523d c71d 87bd
000000a0: 10e6 6c3d c84d 14bd 3143 02bd 90b8 9bbd
000000b0: 575c 4c3d ae13 813c da63 12bd b391 d1bc
000000c0: 18ec 33bd 903d 85bd d45f 20bd 478e ac3d
000000d0: a48c 113d df5f 833c 6c25 b8bc e7ba 363d
000000e0: 58ee 8e3d fc33 ad3d e87a 5f3d c9c0 59bd
000000f0: ff9f 84bd a2aa 983b aa3d 5dbd 34f6 cebd
00000100: 90d6 8ebd 073f 593d 0022 333d 317f 92bd
00000110: 8041 883d 861f a33d 316b a1bd 8fd2 833d
00000120: dac4 973d ed2b 633c bbac 513d 19f5 4abd
00000130: 8f7e 413d 9b55 8fbd 3c83 c13d 21d1 47bd
00000140: 86a1 a83d 5c5f 05bd f580 893b 88c5 e63b
00000150: 0cf6 683d 1129 be3c a6fe 253d 52f6 7d3d
00000160: e977 b53d 6494 cdbc 23db b2bd 5abe 043d
00000170: 5e5f b93c ba98 353d 96b1 c43c 8109 c4bc
00000180: b2a6 a7bd a025 8a3d f572 6e3d d145 93bd
00000190: a0b7 573d 3384 b13d 57aa 81bd ec78 bdbd
000001a0: 7673 a0bd 7a3f 3c3a 84ee 36bc e6dc 35bd
000001b0: 02c1 613c 6877 e33b 1a48 3c3d e007 0f3d
000001c0: 0351 8fbd fcc6 a03d 849a 67bc 7d02 76bd
000001d0: c855 43bc f329 a9bc f4f5 63bc 5384 75bd
000001e0: e691 56bd 913b 51bd 83a3 9fbc a9be a03d
000001f0: e74e f93b 77ff afbd 02b7 3f3d 84e1 853c
00000200: 24c9 d9bc a049 6d3d f856 0e3d 929c a8bd
00000210: 0629 9a3d 8620 e63b 1f58 bdbd fdb9 78bd
00000220: a420 5fbc 219f 273d b355 89bc 6308 8dbd
00000230: 073c 193c 66cc b0bd 8252 463d 7b65 3cbd
00000240: c2e4 cfbc 807b 8cbd 5580 48bd afd1 6f3d
00000250: 98f9 17bd 943d 553c a394 88bc 63fa 2cbd
00000260: 69b7 8abd a3ba e83b 8dfb 5b3d db5a f43c
00000270: 1545 c53d 405e 273d 658d 5c3d a8f5 9dbd
00000280: 42d9 1f3d bea1 693d 6f48 26bd 1623 81bd
00000290: ca93 a1b9 c2c3 8ebd d3dd 5fbc 0710 2a3d
000002a0: e278 ba3c 2d50 37bd b065 e7bc ba6d 153a
000002b0: f261 df3d 26ea ab3c 5b8c 823d 3ca7 1ebc
000002c0: a29e 113d 3d75 b8bd 7395 c1bd a1d1 79bd
000002d0: a7b3 e4bd 55be 10bd 3721 233d 8478 bbbc
000002e0: c4ee b5bb 94f1 8f3d d199 82bd 7295 a0bd
000002f0: cbb0 193d 040e 853d f933 31bc fcee 12bd
00000300: 8e86 a73c 0e9d b1bc 0940 3b3d 0bfa 23bd
00000310: 47d7 c63d 7373 a8bd 202e 9cbb 0d5c 3e3b
00000320: 7782 a4bd d514 00bd 37d3 3f3d 51dc 40bd
00000330: b160 d93d 20fc 76bd 4abe 953d 60cc c43c
00000340: 6be3 a73c c0ed 6e3d b34d 53bd 1378 303d
00000350: 28f1 8ebd d4f3 b238 0807 00bd 0a85 6e3d
00000360: 5529 303d 79b9 333d cdf2 34bd 81e3 94bd
00000370: 6f0f 4a3c 6d2d 813c 7408 72bd 0d70 64bd
00000380: def7 853d 108b 993d c55f 82bd fede f939
00000390: 39a9 8d3d 4607 6b3d 7c27 a4bd e613 e8bb
000003a0: 3f80 ddbc db59 dcbc 6290 cf3d f1a4 e1bc
000003b0: d9d9 db3c 3645 383d e69d 743d 9f47 b53d
000003c0: bf23 8f3d 49c3 40bd 8eaa 8a3c efb9 b53d
000003d0: d95d 18bd 2d9b 1b3d e473 ac3d fd75 8a3d
000003e0: 617c fdbc 3a14 59bd 7ee0 543d a21f 9fbd
000003f0: b70d 54bc c2c7 e53c ebef 67bd 2d66 81bd
-0.057334922 0.089382835 0.050590016 -0.008045519 -0.0149649065 -0.07935083 -0.042992372 0.07282931
0.02336206 -0.062267832 0.017977612 0.0094360765 0.026569543 -0.056329895 0.05161597 -0.024253054
0.0025380652 -0.03041354 0.073806 -0.01797166 0.067859486 -0.013271045 -0.075726725 -0.04920111
-0.07905894 0.008167539 0.0675508 0.05177655 -0.016186366 0.026216768 0.07233294 -0.05690905
-0.077538766 0.038391676 0.033475894 0.07631326 -0.07665927 -0.035992626 0.051298447 -0.065974765
0.057836592 -0.03620699 -0.03180236 -0.07603562 0.04989275 0.015756454 -0.035739757 -0.02558217
-0.04392633 -0.06505883 -0.03915389 0.08425575 0.035534516 0.016036926 -0.022478782 0.044611838
0.06979054 0.08457181 0.054560572 -0.05316237 -0.06475829 0.004659013 -0.054013886 -0.10105553
-0.06974518 0.053038623 0.043733597 -0.07153166 0.06653118 0.07964997 -0.07881773 0.06436645
0.07410593 0.013865453 0.05119012 -0.04955015 0.047239836 -0.0699875 0.09448859 -0.048783425
0.08233933 -0.032561645 0.004196281 0.0070425905 0.056875274 0.023212941 0.040526055 0.062002487
0.08860762 -0.025095172 -0.08733203 0.032408096 0.022628482 0.044335105 0.02401046 -0.023930313
-0.081860915 0.06745458 0.0582151 -0.07191051 0.052665353 0.08667793 -0.06331318 -0.0925158
-0.078345224 0.00071810896 -0.011165265 -0.04440012 0.013778927 0.0069417246 0.0459672 0.03491962
-0.06997874 0.07850453 -0.0141359605 -0.060060967 -0.011922307 -0.020649886 -0.01391362 -0.059940647
-0.052385233 -0.051082198 -0.019487148 0.078488655 0.007608283 -0.08593648 0.04680539 0.016342886
-0.02658517 0.057931542 0.03475091 -0.082329884 0.07527356 0.00702292 -0.092453234 -0.060724247
-0.013618622 0.04092324 -0.016764497 -0.06886365 0.009352691 -0.08632736 0.04841853 -0.045995217
-0.025377635 -0.06859493 -0.048950512 0.05854958 -0.037103266 0.01301517 -0.016672438 -0.042230975
-0.06773264 0.007102327 0.053706694 0.02982848 0.09632317 0.04086137 0.05384578 -0.07712871
0.039025553 0.057039015 -0.04059642 -0.0630552 -0.00030818424 -0.069709316 -0.013663727 0.04151919
0.02276272 -0.044754196 -0.02824673 0.00057002495 0.109073535 0.020985674 0.06374427 -0.0096834265
0.035551675 -0.090067364 -0.09452333 -0.060990933 -0.111670785 -0.035337765 0.039826598 -0.022884615
-0.0055521447 0.07028499 -0.063769944 -0.078410044 0.03752212 0.06496814 -0.010815614 -0.035872445
0.020449903 -0.021681335 0.045715366 -0.04003338 0.0970903 -0.08225145 -0.0047662407 0.0029046566
-0.08032697 -0.031269867 0.04683229 -0.04708511 0.106141455 -0.06029904 0.073116854 0.024023235
0.020494184 0.058332205 -0.05158777 0.04308326 -0.06979591 8.533118e-05 -0.031256706 0.058232345
0.043008167 0.043878052 -0.044176865 -0.072699554 0.012332781 0.015768731 -0.059090093 -0.055770922
0.065414175 0.07497227 -0.06365923 0.00047659123 0.06917042 0.057379983 -0.080153435 -0.00708245
-0.027038692 -0.026898315 0.10134961 -0.02754447 0.026837276 0.04498788 0.059720896 0.08851551
0.0698924 -0.04706124 0.01692703 0.08873355 -0.037198875 0.037989784 0.08420542 0.06760786
-0.030943098 -0.052997805 0.051971905 -0.07769705 -0.012942723 0.028049354 -0.056625288 -0.063183166

lstm.bias_ih_l0 f4 [512]
00000000: 5550 38bd 865b 6ebd 47c0 54bc 19f4 a33d
00000010: 9d5b 6fbd 4ce7 35bd dc7a 4bbd 9e7e c23b
00000020: bc71 01bd 1cea d5bc 6b4c e2bb ddc2 05bd
00000030: 8afd fb3c a457 9dbd 5862 2d3d 4e4c cc3d
00000040: db2a eabb feb4 27bd abf5 a83d b2b1 92bd
00000050: 430e 5b3d a94c 72bd f290 ce3d 0662 7cbd
00000060: d260 243d 26fe 543d a1b3 533d f710 a2bd
00000070: 6058 373d d5e7 bfba c4e1 00bd 78de 70bd
00000080: 62a4 b33d 1580 1b3d 2659 873d 7a4d aa3d
00000090: fcbf 7d3c b325 69bd 7c7c 07bd 74e8 503d
000000a0: 5872 42bc 9d4c a43b 3311 8f3d c414 adbc
000000b0: b602 29bd 1a09 213b 3fc3 63bc f404 81bd
000000c0: decb 0fbd 9773 26bd 1cbc be3d 90ca e13d
000000d0: 74d7 2bbd bc9d 15bc 11fc 93bd 6730 253d
000000e0: 9085 bd3d c3df aa3d e511 90bc ab4a 45bd
000000f0: 445d 38bd 09ec cd3c 09b4 0d3d 124b 20bd
00000100: f8bf 9a3d 17cd 883c 173a 01bc f3ab 463d
00000110: 2d1c e63c e096 723d 51de 80bc ab6f 653c
00000120: b81d 863d 26e2 023d 0685 9abd 02c7 943d
00000130: c692 0f3d 4dcb df3a bf40 513c 6723 69bd
00000140: b3ea a73d 7706 9b3c de11 80bd 0bfa a93d
00000150: 04ef c3bc 0cab a63d 75c7 483d c9bc bcbc
00000160: af3b fabc 6611 fa3c b8ba a9bd 1f07 343d
00000170: a8b8 533d 01fb 26bc 5a07 f6bc 553b 5d3d
00000180: 7dee 253d 99b4 d7bc e893 b83d a414 fb3c
00000190: bf66 26bd a23d c13b c63e 723d 7663 053c
000001a0: 5221 133d 9a3c 89bd a438 713d 42d7 743d
000001b0: d4ff c4bb 2c91 9bbc 50c2 7c3d e478 863d
000001c0: 0a9c 9b3b fb67 75bd 42b7 753d b98d d43d
000001d0: e7b2 0b3d 8ec9 643d 675b a13d 966d c93d
000001e0: 5d2a f53c c1fe c43d 9399 b1bd 24c4 e73c
000001f0: 01ac 763d 4f61 8f3d 461e 433d 661d 4bbc
00000200: fc18 f03b 091f 8d3d 302a a93d 0cb3 2a3d
00000210: 780b 8bbd 2639 683d 3104 c43c 5750 c23c
00000220: 944e d4bc 1da6 0f3b 9d3f 2fbb 8cba 9b3d
00000230: e585 3bbd a117 46bd 331d 25bd dfb8 b43d
00000240: b41f 02bc 6e04 82bc 28fd 903d 70f8 51bd
00000250: 173c 953c 1244 a33d 25e0 883d 0022 58bc
00000260: fc83 7ebd 5b2b 763c 7667 23bc 7e5e 5abd
00000270: dbf4 9d3d ea85 77bd 0fdc 9d3d 43be 873d
00000280: 3150 ba3b de0d 643b 4335 323d bca3 6b3d
00000290: a893 cc3c 71cf 67bd 4d54 ac3a 8a34 12bd
000002a0: e0f7 3dbc dfbc f23a 4d54 ac3d 006f 8c3c
000002b0: 1229 a1ba e6e0 94bd d166 a43d 0c67 4e3c
000002c0: c4d5 7ebd 930e 663d 021c 783b 191d 4abd
000002d0: f5ca 8ebd e470 463d 3e12 3d3d 3e34 0cbd
000002e0: a946 20bd 90bf 70bc 4d0a 43bc f175 6fbd
000002f0: b5a8 93bd 0415 ba3c 0544 7abd 794b 843d
00000300: 6499 9c3d b4d2 6ebd e7c1 aebd 12c1 e4bb
00000310: a0ab 933d a285 bcbc 2c1d 87bd f4b8 8cbd
00000320: a848 07bd 1b8b 26bd 3683 af3b 412d 4d3d
00000330: 4cbc 9dbc f7c3 4fbc 4cf6 8b3d 7d37 b7bc
00000340: 726b 243d 7778 713c 1c01 0dbd ff1c 973d
00000350: d0a5 373d a3ca b83b 8993 663d f49b 883c
00000360: 4dca bb3c 3170 51bd 9824 633d 81d4 82bd
00000370: 3dfd 99bc a003 8cbd 90f0 a73d 7919 923c
00000380: 557b 7a3d 2e3c 96bd f12c 8dbd c8db 063d
00000390: 4baa 86bd 654b a13d 3017 ac3d 8a0f 663d
000003a0: 770d c5bc 1d08 debc d11b 823d de1e ad3d
000003b0: 96b3 023b 2b85 66bc 8642 59bd 6cd1 893c
000003c0: 6cdb 55bd 4cfc e0bc 3b9e 36bd aaea cf3d
000003d0: 51c9 80bd af34 52bd 2b42 77bd 6d64 463d
000003e0: d5e6 50bc a9a1 913a 7530 cabb 558b 573d
000003f0: a34a d5bb 6c27 383c 646c ec3c 9dcc 163d
-0.044998486 -0.058192752 -0.012985296 0.08005542 -0.05843698 -0.044410035 -0.049677715 0.005935504
-0.031602606 -0.026112609 -0.0069060824 -0.03265654 0.030760545 -0.07682732 0.042330116 0.099754915
-0.007146222 -0.040944092 0.082499824 -0.07162799 0.053480398 -0.05915514 0.1008624 -0.06161692
0.040131398 0.052000187 0.05168498 -0.07913392 0.044762015 -0.0014641235 -0.031465307 -0.058805913
0.08771588 0.037963945 0.066088006 0.08315559 0.015487667 -0.05692072 -0.033077702 0.051002935
-0.011868082 0.005014016 0.06985702 -0.021128066 -0.04126235 0.0024572075 -0.013901531 -0.06299773
-0.035106532 -0.04063758 0.09313223 0.11024964 -0.04195352 -0.009131845 -0.07225812 0.040329363
0.09253991 0.083434604 -0.017586658 -0.048166912 -0.04501082 0.025136964 0.034595523 -0.039134093
0.075561464 0.016699357 -0.007887385 0.048503827 0.028089607 0.059225917 -0.015731009 0.0140036745
0.06548637 0.031953953 -0.075449035 0.0726452 0.035052083 0.0017074138 0.012771784 -0.056918528
0.08199062 0.018923981 -0.06253408 0.08299645 -0.023917682 0.08138093 0.049018342 -0.023039239
-0.030546037 0.030525874 -0.08287567 0.043952104 0.051689774 -0.01019168 -0.030032802 0.05401166
0.040510643 -0.026331233 0.09012586 0.03064949 -0.04062533 0.00589724 0.059141897 0.008141389
0.03592045 -0.06701012 0.058891907 0.0597756 -0.0060119424 -0.018990122 0.06170875 0.06566027
0.004748826 -0.059913617 0.05998922 0.10378594 0.03410616 0.05585628 0.07878762 0.09835355
0.029927427 0.09618903 -0.0867187 0.02829177 0.06022263 0.07000982 0.047636293 -0.012397146
0.007327197 0.06890685 0.0826 0.04167466 -0.06789297 0.056695126 0.02392778 0.02371995
-0.025916375 0.002191908 -0.0026740797 0.0760394 -0.04578199 -0.048362378 -0.04031105 0.08824324
-0.007942129 -0.015871253 0.07079536 -0.05126232 0.01821713 0.07971968 0.06683377 -0.0131917
-0.06213759 0.015024985 -0.0099733975 -0.05331277 0.07712718 -0.060430445 0.077079885 0.066280864
0.005685829 0.0034798305 0.043507826 0.057529196 0.024972752 -0.056594316 0.0013147682 -0.035694636
-0.011594743 0.0018519423 0.084145166 0.017142773 -0.0012295565 -0.072694585 0.08027423 0.0125978105
-0.06221558 0.056166243 0.003785849 -0.049344156 -0.06972305 0.048447505 0.046159975 -0.03422951
-0.039129887 -0.01469411 -0.011904311 -0.058462087 -0.07209913 0.0227151 -0.061100025 0.06459708
0.076464444 -0.05830641 -0.08533078 -0.0069810236 0.07210469 -0.02301294 -0.06597361 -0.068712145
-0.033028275 -0.040660005 0.0053562177 0.050091986 -0.019254826 -0.012680999 0.06834087 -0.022365326
0.04014153 0.014738194 -0.034424886 0.073785774 0.044835865 0.0056393906 0.056293044 0.016675927
0.022923613 -0.051132385 0.05545482 -0.06388188 -0.018797511 -0.06836629 0.082001805 0.017834412
0.061152775 -0.07335697 -0.068933375 0.032924443 -0.065754496 0.078757085 0.0840286 0.056167163
-0.024054272 -0.027103478 0.06352962 0.08453153 0.0019943467 -0.014069836 -0.053041957 0.016823493
-0.05221121 -0.027464055 -0.044584494 0.101521805 -0.06288398 -0.051319774 -0.060365837 0.048435617
-0.012750347 0.00111108 -0.0061703273 0.05262311 -0.0065091415 0.011239868 0.028860278 0.03681623

lstm.bias_hh_l0 f4 [512]
00000000: a950 9bbd 8d07 873c 1119 a4bc 4c3d 103d
00000010: 9620 96bd feed 643d a37a 9fbd ddcd c8bc
00000020: 9204 32bc 3ba4 0cbd 6cb4 5b3d 8ed9 68bd
00000030: 3cc5 63bd 08d7 1c3c 8150 a43d c6f6 c13d
00000040: a816 253c 2c83 b13d 2062 9f3d e97a 943d
00000050: ff0a 823d f169 a13c e026 21bd 6d8e 153d
00000060: 2894 8fbd 7bab 25bb e4c2 86bc 5814 d63c
00000070: f4ac 8bbd 97be 24bd a012 163d c184 73bd
00000080: 42c9 70bc 5e6f 903d 2ae1 e1bc 97a2 c03c
00000090: 1efe 9f3d a966 86bd d809 ae3d 68cf d1bc
000000a0: a8e1 20bd 4909 74bc 4c80 aebc 2931 01bd
000000b0: f085 983d 6afc 743d 6782 8cbc d682 673c
000000c0: 9cef 743a 2d20 a33c 158a df3c 7836 e7bc
000000d0: d42d 293d f767 dcbc 8a4c 4b3d da28 9d3b
000000e0: f60a b83d 0529 74bd aaa4 7dbd b9c6 8e3c
000000f0: 129e 393c 2316 983d d5d5 41bd a682 693d
00000100: 3ad0 ea3b cd3e e8bb 8679 9e3c 5f10 2bbc
00000110: e93f 833b a2b1 db3d 0bea 433d 6c36 e8bc
00000120: bff3 34bc c3a2 dd3c a28e e5bc fce4 34bd
00000130: 6167 c63a e63b f03c a617 aa3d 884b e33b
00000140: 82ed 853d 49fc 683d 4089 e13c 5a7a cd3d
00000150: 3e65 323c 27a0 fa3d 838e 603d d67e 283c
00000160: eca1 cc3b eb3f a53d ee2c 3dbd 2bea 083d
00000170: dca4 90bc a3d5 6a3d 1a4d bebc 0e88 7cbd
00000180: 92b7 983d 8db4 e8b9 eeef 353d 77ff 8c3d
00000190: 70f8 8bbd 546c 863c 48b6 c23d e423 81bc
000001a0: 170e 07bd c54a e73a 569f 32bd 9691 c23d
000001b0: 3370 a23d 6eb0 a3bb 3e6d 30bd c082 a1bc
000001c0: 012d 87bd 7f3d 733d 3e7b e9bc 6177 5ebc
000001d0: 366d e33c 5145 c13d b872 1dbd 9c09 103d
000001e0: 249c f0bc d92e b23d bcad c33c e19b 6dbc
000001f0: 8db1 dc3b 7ba3 a83d f601 b43d a74a 023d
00000200: 0d5d 70bb 16c1 c4bc 1c8a 79bc 0557 433b
00000210: 5a0d 0fbc 8cfa 81bd 69d9 4dbd 33fb 483d
00000220: 3827 073d ec28 aebd 2073 8d3c 7a05 833d
00000230: 24be 5d3b bbec 083d d240 ddbc 798e bc3d
00000240: 4cc7 58bd 41f7 85bd 13fb af3d d6e7 7fbd
00000250: 54cd e03b d094 e1ba c1b0 9b3d aba8 28bd
00000260: 38a5 973d d3df 163d 8aa4 8c3d e649 a13d
00000270: 8666 f5bc dfb1 113d 63c1 703c 2666 f0bc
00000280: 8779 083d 57db 85bd 09f1 2f3d c0c3 b13d
00000290: bc50 b5bc 2aa4 18bd 58cc a3bb 436d 3fbd
000002a0: eac9 5bbd 5193 dbbb c199 ee3c 3400 a3bc
000002b0: 26bb 66bd 2941 25bd d1b5 3e3d f6c1 a9bc
000002c0: b2ec 323d 7b3f a43d e78a 033d 6108 673c
000002d0: 9d71 94bd d809 43bd 971c dc3c 5d14 bc3d
000002e0: 113b 2ebd 2d60 81bd e422 943d 4ea1 8d3c
000002f0: 4787 21bd 869e 353d fa7a 5a38 f840 3c3d
00000300: 989d f33c b572 b63d e049 803d f8a8 b83c
00000310: 2f4c 52bc 368b 763d f5ee ec3a fadf 82bd
00000320: 098a 803d 1649 523d 7d94 94bb 6002 4cbb
00000330: b2e4 c1bd c77d 61bd bf3b 7fbd e567 9e3d
00000340: a5aa 04bd dd95 5e3d 789c 07ba 923e a03d
00000350: 28f5 8e3d 34c6 a1bc 06fb 5d3c 4ea7 6cbd
00000360: 12ab c13d c621 40bb 05cf 92bd 1848 363d
00000370: f053 983d 5e7e 96bc 7c9a 95bb 32c0 56bb
00000380: 8706 d83d f291 4cba 8d17 7cbb 23f0 ba3d
00000390: 78c3 72bd 6a38 993d 2ff6 2a3c c946 8cbd
000003a0: 812e 8fbc dc7c 8ebd 9988 023c 4ac2 ccbc
000003b0: 0e64 43bd 9cc6 40bd f12c bd3d d4ad a63c
000003c0: 7caa e13b f5f9 3a3d be33 04bc 3513 5e3c
000003d0: d038 eb3c 77ee 043c 130b a23d d840 ce3d
000003e0: 1495 9a3d c55c 863d af95 b3bd 10d7 c63d
000003f0: b4e9 8cbd fe02 80bd c38b 0cbd fa66 4abc
-0.07583744 0.016483093 -0.020031484 0.035214707 -0.07330434 0.05589103 -0.07787063 -0.024512226
-0.010865347 -0.03433631 0.05363886 -0.0568481 -0.05560802 0.009572752 0.080231674 0.094708964
0.010076202 0.08667597 0.07782388 0.07250006 0.063497536 0.019703837 -0.039343715 0.03651278
-0.070106804 -0.0025279212 -0.016450353 0.026132748 -0.068200976 -0.040220823 0.036638856 -0.059452776
-0.014696421 0.070524916 -0.027573187 0.023515029 0.07812141 -0.065625496 0.08497971 -0.025611594
-0.039277703 -0.014894792 -0.021301411 -0.031541023 0.074474216 0.059811033 -0.017152024 0.014130315
0.0009343566 0.019912804 0.027287522 -0.028224215 0.04130347 -0.026905043 0.04963354 0.0047961297
0.08986466 -0.05960943 -0.061924614 0.017428743 0.011329191 0.07426097 -0.047323067 0.05700936
0.007165936 -0.0070875646 0.019345056 -0.010440915 0.0040054214 0.1072724 0.047830623 -0.028346263
-0.011044442 0.02705515 -0.028022114 -0.04416369 0.001513701 0.029325437 0.08305292 0.0069364943
0.06539442 0.056881223 0.027531266 0.10033102 0.010888396 0.12237578 0.05482341 0.010284146
0.0062448885 0.08068832 -0.046185426 0.033426445 -0.017656736 0.057332646 -0.023230124 -0.06165319
0.07456888 -0.0004438501 0.044418268 0.068846636 -0.06834495 0.016409077 0.09507424 -0.015764184
-0.03297242 0.0017646184 -0.043608986 0.095004246 0.079315566 -0.0049953973 -0.04307293 -0.019715667
-0.06600381 0.05938482 -0.02850115 -0.013578267 0.027762037 0.09437049 -0.038439482 0.035165414
-0.029371329 0.08700342 0.023886554 -0.014502496 0.006735033 0.082343064 0.087894365 0.031809475
-0.0036676556 -0.024017852 -0.015230682 0.0029806506 -0.008731211 -0.06346616 -0.050256167 0.049067687
0.032996386 -0.08503899 0.01726681 0.06397529 0.0033835256 0.03342889 -0.027008448 0.09206862
-0.05292444 -0.065413006 0.085928105 -0.062476955 0.0068604145 -0.0017210487 0.076020725 -0.04117648
0.0740456 0.03683455 0.06867321 0.07875423 -0.029956114 0.03557002 0.0146945445 -0.029345583
0.033319023 -0.065359764 0.04295448 0.086799145 -0.022133224 -0.037265934 -0.004998725 -0.04673506
-0.053659357 -0.006700911 0.02912605 -0.019897558 -0.056330822 -0.040345345 0.046560112 -0.02072237
0.04368276 0.080199204 0.03211489 0.014101119 -0.072482325 -0.04761681 0.026869101 0.091835715
-0.0425368 -0.06317172 0.07233217 0.01728883 -0.03943565 0.044340633 5.208978e-05 0.045960397
0.029738232 0.089085974 0.062640905 0.022541508 -0.012835546 0.060191356 0.0018076586 -0.063903764
0.06276328 0.05133923 -0.0045343027 -0.0031129345 -0.09467448 -0.05505159 -0.062312838 0.0773466
-0.0323893 0.05434214 -0.0005173157 0.07824434 0.069803536 -0.01974783 0.013548618 -0.05777674
0.09456457 -0.0029317006 -0.07168392 0.044502348 0.07437885 -0.018370803 -0.004565535 -0.0032768366
0.1054812 -0.000780373 -0.0038466186 0.09127834 -0.059268445 0.07481463 0.010434671 -0.06849439
-0.01747823 -0.06957409 0.007967138 -0.024994988 -0.04770284 -0.04706441 0.092370875 0.02034656
0.0068867784 0.045648534 -0.008068977 0.013554384 0.028713614 0.008113495 0.079122685 0.10070962
0.07547966 0.06560663 -0.08768784 0.09708989 -0.06880513 -0.06250571 -0.034312975 -0.012353653

fc.weight f4 [3, 128]
00000000: e59e e13d 3015 423c 067c ca3d 4954 3dbd
00000010: 9e35 23bd a7b0 8abd a49d 833b e26e 763d
00000020: f9a5 0ebd 5d39 48bd a43f fb3c 872e 3ebd
00000030: a63b 63bc 16a3 143d d080 aabc 0026 9cbd
00000040: 2a1f aebd 8e71 c0bd e177 9cbd 3977 7ebc
00000050: ab4f 243b d349 c9bc 74b3 b03d 48f7 b33c
00000060: ba25 8e3d dae4 a4bd cdf1 b1bc a4a4 943c
00000070: 8f40 80bd c47b 73ba 6946 51bd db95 d03b
00000080: 0433 fd3c 27a9 c7bd c498 8b3d d8f1 193d
00000090: e865 afbd 164d 9a3d 9001 ebbd de79 18bd
000000a0: f6af 153d 68c5 9bbd d1ec 9c3d 9d63 833d
000000b0: e734 9dbd 3824 ebbd 164d ce3c 72f0 7c3d
000000c0: 9c16 2cbd c5ce bfbb 04a4 c13b 4a54 8f3c
000000d0: 14f1 1cbd d449 0ebd a9f7 e03d 7f9d a13d
000000e0: a52d 7fbd b3cf aa3d ad0d edbb ae1c 943b
000000f0: 690a 9e3d 8e5f da3d 5654 69bd 288a 0dbd
00000100: ee97 5cbd 607a 2a3c 6217 2cbc 460f b9bd
00000110: 3f86 a7bd 114b 613d fda7 6e3d a18f 46bd
00000120: 0fee a43d 2342 c8bd 3c43 60bd bc5a aabd
00000130: a0ff 0c3d e8cc 4cbc 5b4a a43d 9815 c0bc
00000140: 5f1d c2bd 456f cc3d dd5f f9bc 01e9 203c
00000150: c963 103c 337b b33c 6a70 2f3d 1e17 94bd
00000160: b88d 0abd 7986 b13c d517 c1bc 8b0e d2bd
00000170: 2fa1 bd3c ce96 943d a9a4 cdbd f945 623d
00000180: cc46 8c3d 49fe 34bd 6c49 0fbd a729 813d
00000190: 8359 c53c 6aa2 a83d 6084 cfbc af1b 73bd
000001a0: 003d ee3c c989 1b3d 3523 ae3d d9a4 e63c
000001b0: 4f33 52bd 86f8 813d 93b4 96bc 2502 b5bd
000001c0: cf78 8a3d f34b ff3b 59c5 1b3d 91e0 99bd
000001d0: 3176 83bd e5cd 81bd 80fb d53d 82b0 ac3d
000001e0: bbf9 073d cc45 a6bd de2f 463d bcbb ea3c
000001f0: 9425 15bd 3236 043c 9013 b2bd 961a ba3d
00000200: a604 833d 58f8 94bd 3b82 b23d ee1b d53d
00000210: d405 ac3c 8642 a13d cd4b a4bd 4fe3 a53c
00000220: 5a1b 88bd 4118 88bb 82ed 153d 038a 363d
00000230: 4c25 b63d 25b1 84bd 7a81 6e3d 0f9b 943d
00000240: 2a86 403d 0e30 89bc c69f 7bbd 8a08 aabc
00000250: 7a99 f13c 508b 003c 8619 553d 57ed 6b3d
00000260: 6e51 b23d 84c3 2b3c 401e 2e3d 8b74 5bbd
00000270: d2d1 01bd 265e b5bd dcbd 98bd 0e2d 22bd
00000280: 5334 a4bd f756 7d3d e4fe 5b3d 9989 adbc
00000290: 3706 5d3d caf0 9abb d8b1 e43b 1e32 c1bd
000002a0: b623 7cbd eb4e 223d 56fe d93d dbca 03bc
000002b0: 0106 b23d 8689 683d 61e3 5dbd 4dd9 8f3d
000002c0: ac78 bbbd 4253 1a3d 8462 dc3d a2bf e7bd
000002d0: ec42 b93c 54a7 37bc 3e15 9fbd 8150 843d
000002e0: 7329 bf3c 8be8 40bd ceea 51bd cf3b 01bd
000002f0: 7038 ccbd d956 44bd b598 9e3d 6685 0d3c
00000300: 13b2 d23d 393e 123c dc2b ca3d fa09 c73d
00000310: 9945 bdbc 04d2 16bd 0de8 1f3d 4d02 47bb
00000320: 998f 423d c69e 053b 47c8 833d a9f4 b8bc
00000330: 046e 51bc dbc4 40bd 3ed5 d8bc 5a9f fd3b
00000340: 734e 88bd b441 9f3d 8767 553d bb40 5abd
00000350: 6bc5 e2bc 8b21 26bd dae1 a0bd d512 893c
00000360: 9ec0 573d 876f 733d 0d64 95bc 2517 573d
00000370: 6e62 a83c b085 a0bd a968 9e3d d7da 89bd
00000380: 5523 eabb 797d cbbb 89a3 b73d 39ee a9bd
00000390: ceb7 c53d 6431 693d 6c47 903d 3be6 883d
000003a0: 14ad b53d 018e d9bd 2d39 febd 7548 c03d
000003b0: c735 703d df1f 44bd 8dca 803c 3d8c 1dbd
000003c0: c447 1cbd 137e 883d dfca 163d 932c 433c
000003d0: f7a3 9ebc fa72 b23d d7f1 d4bd 7c6a 9dbd
000003e0: c354 e13d b4d6 003d 6b7a 4abd 926b ddbb
000003f0: ad00 463d 1ff1 11bd b958 983d bfb7 4ebd
0.11016635 0.011845872 0.09886937 -0.04622296 -0.039846055 -0.06771975 0.004016595 0.06016434
-0.034826253 -0.04888283 0.030669995 -0.04643109 -0.013869202 0.036288343 -0.020813376 -0.076244354
-0.08502038 -0.09396659 -0.076400526 -0.015531355 0.00250719 -0.024571335 0.08627978 0.021968499
0.069407895 -0.080514625 -0.021721745 0.018144913 -0.062623136 -0.0009288157 -0.05109254 0.0063655204
0.030908115 -0.0974906 0.06816247 0.037584156 -0.08564359 0.07534234 -0.114749074 -0.037225597
0.036544763 -0.07606012 0.07662357 0.06415484 -0.07676106 -0.114815176 0.025183242 0.061752744
-0.04201375 -0.0058535063 0.0059094448 0.017496247 -0.038315848 -0.034738377 0.109847374 0.07891368
-0.06229939 0.08340397 -0.0072342963 0.0045200204 0.07716829 0.10662757 -0.056965195 -0.034555584
-0.05385583 0.010405153 -0.010503622 -0.09036116 -0.08179902 0.05500323 0.058265675 -0.04847682
0.080532186 -0.097782396 -0.05475162 -0.083180875 0.03442347 -0.012500025 0.08021995 -0.023447797
-0.09478258 0.099821605 -0.030441219 0.009821177 0.008812853 0.021909332 0.042831816 -0.07230972
-0.03382656 0.021670567 -0.023570934 -0.1025668 0.023148147 0.07255326 -0.10041172 0.055242512
0.06849441 -0.044187818 -0.03498213 0.06306773 0.024090534 0.08234103 -0.025331676 -0.059352573
0.029081821 0.0379732 0.08502809 0.028154777 -0.051318463 0.0634623 -0.018396651 -0.088383
0.06761324 0.0077910363 0.038030002 -0.07513536 -0.064190276 -0.063380994 0.104483604 0.08432104
0.033197146 -0.081187814 0.048385493 0.028653972 -0.03641279 0.008069562 -0.086951375 0.09087102
0.06397371 -0.0727393 0.08716246 0.10405718 0.020998873 0.078740165 -0.0802227 0.02024999
-0.06645842 -0.004153282 0.03660346 0.044565212 0.088938326 -0.064791 0.058228947 0.072561376
0.04700295 -0.016746547 -0.06143167 -0.020756025 0.029492129 0.007845715 0.052026294 0.05759939
0.08706938 0.010483626 0.042509317 -0.05357794 -0.03169424 -0.08855848 -0.07458088 -0.03959375
-0.080177926 0.061850514 0.05370988 -0.021183776 0.053961005 -0.0047284113 0.0069792084 -0.09433387
-0.061557494 0.039626043 0.10644214 -0.00804397 0.086925514 0.056771778 -0.054171924 0.07023869
-0.09153876 0.037677057 0.10760978 -0.11315848 0.022614919 -0.011209328 -0.077677235 0.064606674
0.023335194 -0.04709677 -0.051249318 -0.03155118 -0.09971702 -0.047934387 0.0774397 0.008637762
0.10287871 0.008925968 0.09871647 0.097187 -0.023104476 -0.03682138 0.03903966 -0.0030366362
0.047500227 0.0020388826 0.06434684 -0.0225776 -0.012782577 -0.047062736 -0.02646887 0.0077399435
-0.06655588 0.07776204 0.052100684 -0.053284388 -0.027682027 -0.040559333 -0.07855578 0.016732613
0.05267393 0.059432533 -0.018236184 0.052512307 0.020554747 -0.07837999 0.07734806 -0.067311935
-0.007145325 -0.006210026 0.08966739 -0.082973905 0.096541986 0.05693187 0.07044873 0.06684538
0.08870903 -0.10622788 -0.12413249 0.0938882 0.058645036 -0.047881957 0.015721584 -0.03846382
-0.03815438 0.06664672 0.036814567 0.011912483 -0.019365294 0.08713336 -0.1039769 -0.07686326
0.11002495 0.031454757 -0.049433153 -0.006757208 0.04834049 -0.03563034 0.074387975 -0.050468203

fc.bias f4 [3]
00000000: fd19 5fbd f90e ad3d c1a4 933c
-0.054468144 0.084501214 0.018022897
